textcnn.pth (torch, 430736 bytes, 4 tensors)

weight f4 [256, 1, 1, 384]
00000000: ab81 8a3d dcba a1bc 4e8f e5ba 9ec7 573e
00000010: cd71 ae3e 1b46 a53c 176a bbbd 0ef0 063e
00000020: 1ed1 9cbd a35f 7e3d 3a74 a0bd 91c0 7f3d
00000030: 431b 653b 517d 683e 3df7 b53d 0dfa 783d
00000040: 76ec 82bd 0ec3 2d3e 5fcc 85bb 04d5 b1bd
00000050: 9d22 7dbe e15e 633d 5e7f aebd a14e f43d
00000060: 41c4 93bd 4b1d 4a3e cbbc 22be 936b 3a3e
00000070: 9ebc 653e 60bc a1bd 871b b63d d3fc dabd
00000080: 603a c6bc 9556 d93b 8f72 d13b c56e 153e
00000090: d00a 92be e8a2 143d 1d5c ec3d 76b9 23bd
000000a0: f4c3 41bb 81a5 983d 2fab ea3d 05a3 5c3d
000000b0: 8663 0cbe 85af d23d 6a79 973e e156 7c3e
000000c0: 696a 32bd df07 c9bc 693a 8f3e ffe7 7bbb
000000d0: 4b09 15bc c32a 29be 0b79 5fbd 3bcd 893e
000000e0: d06a 0ebe 1000 9d3d 6a86 82bc 7cb8 123d
000000f0: 18d3 183c c3f3 103e fd08 c2bd a254 15be
00000100: cca6 b5be 92e4 793d 077b 17be 966d 5b3d
00000110: b9ed ccbd ad7c be3c f60d 113e f4bf 25be
00000120: 8a24 f7bd 33d3 e3bc f7b1 563e da70 393e
00000130: a0dd a4bd cd40 cc3c 88c1 a03c 6f97 49be
00000140: 01de 07be d067 9abc 503d 5ebe c97b 2b3c
00000150: 5c42 3e3d f2bb ef3c 56fc 783d af80 22be
00000160: 250f 833e 208f f2bb 2149 743e 4194 933d
00000170: 70a1 55be 4ee7 643d dad1 41bb b444 a2bd
00000180: 0811 a73d 498e 79bd 726f 12be 613b 023e
00000190: d4a4 e0bd 6af7 5a3e 9d0e 8bbe 2c39 30bd
000001a0: 44fa 9d3d bbaa 943c 3758 0b3e dd71 063d
000001b0: a383 08be 32ff 07bd 3b68 953e 3a11 253e
000001c0: 8259 bb3d e460 233e d601 c4be f9bb 113e
000001d0: a87c da3c d510 97be 4f3d 23be a904 9abd
000001e0: d49c 9bbe 0a92 503d 2a79 843e 4b0c 2cbe
000001f0: 355a 5fbc ac42 293d 1201 193e a36f 22bd
00000200: 6cd2 f23c e856 253e 7c61 69be d012 9ebd
00000210: ffb7 08be 6836 8c3d 7d38 663e de04 26be
00000220: 156c 1fbe 5c82 033d 5d30 103c c4e9 5a3e
00000230: a113 58bd d3c6 36bd 2f3e 273e e281 51be
00000240: 8a0b c33d 0bd1 cabd 42ff 8e3d 717c d63c
00000250: 98db 1bbe 9b70 423d 058e aabd a841 c7bd
00000260: b281 09be 51a2 6dbe 7d08 52bd f2c7 5c3d
00000270: c8de dfbe 1ba1 d0bd 0375 32be 3019 f13c
00000280: 6e80 cbbd 965f 9a3d fb85 52be 297c b9bd
00000290: be4e 9b3b 7231 fb3c 8d31 a5bd 899c 98bd
000002a0: a906 923d 2506 24bd d8b8 92be 2aa2 58be
000002b0: 1adc 0a3e e823 673c 4956 d9bd 17a3 6e3d
000002c0: 4ab1 4ebe 9773 1d3e 09cd 273e baa4 44be
000002d0: adc6 303e 2502 3dbe 20a4 c6bd bb2b 6fbd
000002e0: 0ed4 f3bd 6f83 09be 31bd 453d a472 67be
000002f0: 90c7 f9bd e7aa c1bd fd94 a4be 8063 013e
00000300: 4561 0abe 99d0 e73d 81b6 2f3e bc0f 83bd
00000310: f5c6 f23d 6013 03be 2cb0 ebbd bf22 163e
00000320: b2fa c1bc ae04 3a3e 734b c13b 32dd f6bd
00000330: b1fb dfbc fbbb 3a3e 3c24 8f3e 097d 05bd
00000340: 7d29 9bbe f2ad b5be 3993 f8bd d3d6 293c
00000350: acbe 38be 0cd9 bc3c 6c99 a2bd 2604 0cbe
00000360: 2be6 b0bc 0de5 6a3e 5514 84bd 5f62 b3bc
00000370: 722a 62bd 0006 59bc e15e 263e 72f6 063d
00000380: 936f 3abe 9160 cdbc 8328 0ebe 0f58 693d
00000390: 9fd8 29be 4467 fcbc fad8 ac3d 68a6 55bd
000003a0: ec3e 853d f0ec 80be 47d3 bb3c e5c5 da3d
000003b0: ca0d 56bd 5ef7 5a3e c01d fbbd b031 5bbd
000003c0: cb9f 863e 6e48 ec3c 41e2 063e 78a7 383a
000003d0: 1c3c 663e b4a3 8ebc 893f 9d3d 3361 ecbb
000003e0: e217 883d 13ec 3f3d 793f bebd 7b64 89bd
000003f0: 8d33 4bbe 4379 88bd 42ff fd3d 242e a43d
0.067630135 -0.019742422 -0.0017514022 0.21072242 0.34071198 0.02017503 -0.091510944 0.13177511
-0.076570734 0.062102925 -0.078346685 0.062439505 0.0034958876 0.22704054 0.088850476 0.060785342
-0.063927576 0.16968939 -0.004083201 -0.08683208 -0.24720235 0.055510405 -0.08520387 0.1192906
-0.07215167 0.19737737 -0.15892331 0.18205099 0.22435233 -0.07897258 0.08891969 -0.10692754
-0.024197757 0.006632636 0.0063918303 0.14593036 -0.28523874 0.036288172 0.11541007 -0.03997179
-0.002956626 0.07453442 0.11458432 0.053866405 -0.1370984 0.10287384 0.2958482 0.24642517
-0.043558512 -0.024539886 0.2797425 -0.003843784 -0.009096454 -0.16520219 -0.054558795 0.2691439
-0.13907933 0.076660275 -0.015933234 0.03582047 0.009327672 0.14155488 -0.09474371 -0.14583066
-0.35478818 0.061008997 -0.14793025 0.053571306 -0.100062795 0.02325281 0.14165482 -0.16186506
-0.12067516 -0.027810669 0.20966326 0.18109456 -0.08050084 0.024933243 0.019623533 -0.19686674
-0.13268282 -0.01884833 -0.21703076 0.010466524 0.046450004 0.029264424 0.06078752 -0.15869401
0.25597492 -0.0074023157 0.23856021 0.072060116 -0.20862365 0.05588465 -0.0029574544 -0.0792326
0.08157545 -0.06092671 -0.14300326 0.12717964 -0.109689385 0.21383443 -0.27159587 -0.043023273
0.0771375 0.018147817 0.1360787 0.032823432 -0.13331465 -0.033202358 0.29181084 0.16119853
0.09147932 0.1595493 -0.3828265 0.14231862 0.026670769 -0.2950503 -0.15941356 -0.0752042
-0.30393088 0.050920524 0.2587369 -0.16801564 -0.013632347 0.04132335 0.14941815 -0.039657246
0.029641353 0.16146433 -0.22791094 -0.07718432 -0.13351439 0.06846315 0.22482486 -0.16212794
-0.15568574 0.032106742 0.008800593 0.21378237 -0.052753095 -0.044623207 0.16332315 -0.20459703
0.09523685 -0.09903153 0.0698228 0.026182385 -0.15220487 0.04747067 -0.08327869 -0.0972932
-0.13428381 -0.2320645 -0.051277626 0.05390162 -0.43724656 -0.101869784 -0.17427449 0.029430956
-0.099366054 0.07537763 -0.20558922 -0.09056885 0.0047396114 0.030663226 -0.08066092 -0.07451732
0.071301766 -0.040044922 -0.2865665 -0.2115561 0.13560525 0.014107682 -0.10612161 0.058261003
-0.20184818 0.15376125 0.16386808 -0.19203463 0.17263289 -0.1845785 -0.09699273 -0.058391314
-0.119056806 -0.13429044 0.04827613 -0.22602326 -0.12196267 -0.09456425 -0.3214492 0.12635612
-0.13513668 0.11319084 0.17159463 -0.063994855 0.11854354 -0.1280036 -0.115082115 0.14661692
-0.023679111 0.18165848 0.005898887 -0.120539084 -0.027341696 0.18235771 0.27957332 -0.032589946
-0.3030509 -0.35484272 -0.121374555 0.0103661595 -0.18041486 0.023052715 -0.07939419 -0.13673458
-0.021594128 0.22938938 -0.064491905 -0.021897493 -0.05521626 -0.013246059 0.16247131 0.032949872
-0.18206625 -0.02507046 -0.13882641 0.056968745 -0.1658654 -0.03081096 0.084398225 -0.05216065
0.06506142 -0.2518077 0.022927893 0.10682277 -0.052259244 0.21383426 -0.12261534 -0.053514183
0.26293787 0.02884313 0.13172247 0.0007043998 0.22483867 -0.017412044 0.07678134 -0.0072137355
0.0664518 0.046855997 -0.0928945 -0.06708618 -0.19843884 -0.06663754 0.12402202 0.08016613

bias f4 [256]
00000000: c0b2 fdbc 29ef 3c3c 1c8c 3ebc 82e9 373c
00000010: b47a 5d3c b8e1 ab3c 4754 48bd 329c 453d
00000020: 299b 823d a2d8 1d3d 3d62 7f3d 0334 263d
00000030: 3fe3 84bc cc22 603c 4f98 e7bb 8913 ee3c
00000040: bf67 d83c b1d8 6e3d 3415 b63d 1270 9e3d
00000050: 4c92 f5bc 7d79 1a3d f5e4 1b3d c633 be3c
00000060: 0706 563d a809 a63b 780c 7a3d 93a5 ddbc
00000070: 50cd 623d ce77 483c 74b5 833d 1154 9abc
00000080: c8a6 ffbc 4555 723c 805a bebd 5f8c b23d
00000090: 9b27 393b 2e5f 373d 24e2 cabd c9d6 693d
000000a0: 31e1 643c d02d f93c 9ff1 483c ef3e db3d
000000b0: dd26 933c 89ce 443d a285 e23d 0fe5 083d
000000c0: d48d c6bc 6dd8 d33d 5380 313d 20ea d13d
000000d0: ef4f ab3c 5784 7f3d b0d5 ae3d 565b 29bb
000000e0: 89ca 553d 2241 603d 7785 913d d101 863d
000000f0: dd49 9abc 6b02 763c 043a 5a3d 3c14 3a3d
00000100: 9fc8 773d b2e8 8a3d 1607 9f3c 698f 473c
00000110: 31e3 513d d020 933d 4b4f c53c efe5 55bd
00000120: 5de8 833d 2e41 413d d85d a13d 4cf0 76bc
00000130: 64ab b63b c884 893d bafb e13c 6adf 02bc
00000140: 305c 3bbd 0bd3 fb3c 5024 b13d c5a2 b5bd
00000150: 6562 6a3d 1441 7dbd 0172 31bd 4b94 f43c
00000160: 9189 1b3d cc2b c13c fafb 333b 974a 4a3d
00000170: be8e 453d 84ed c23a 0261 2abc 8b56 393d
00000180: 759f 423d 47db 9f3d 4080 563d 83e4 aebb
00000190: 536d f2bc d08f 933d 34c9 843d f195 1dbb
000001a0: 22af 533d 5e32 2d3d a215 e53d cf4d 3cbc
000001b0: 8b40 713d 775d a63c c5ce 00bc c748 ab3d
000001c0: be85 873d ba0c ed3c 876d 463d 97c3 bc3c
000001d0: 2315 1cbd 1793 c2bb 2dc2 6e3c ea2e 863d
000001e0: c923 b03d a8f9 633d 9f10 823c db01 773d
000001f0: a111 f33d 63ed 833d 9f19 073d ffcb b53b
00000200: 521b 3cba 5951 873d 9d5d 7abc c044 2b3d
00000210: ac07 0b3e 67af 6c3d 5d32 eebc a593 fc3c
00000220: 474a a03d 0cec adbd 38f2 24bd 917b 523d
00000230: 0038 803d e8f8 1d3d 3b2e 073d a325 063d
00000240: 17a6 8bbc dc46 47bb 5535 e83c aaf3 93bc
00000250: 3071 973b 9276 be3c 0a3d 0d3b a1a2 b9bc
00000260: 1221 0cbc 31f8 273d 442d 803d cf2b c83c
00000270: 049a df3c b0f8 cf3d 3d23 403d 0b04 093d
00000280: 64d0 b43d af34 aebd 49a7 963d 14b3 893d
00000290: d708 9ebc a6d5 0f3e bd58 bdbc 0320 fd3d
000002a0: ffba ff3c 546b 3a3c cabb bb3d 2721 373d
000002b0: b157 213d ad91 eb3c 9bc9 bbbc 1376 b53c
000002c0: 6ce8 c93d 99aa ce3d b730 fd3c 7335 22bd
000002d0: c604 b63d 7d00 873d 5497 833d 34d2 db3c
000002e0: f9f6 f03c ef6f 053c 062b 4eb9 c95e 153d
000002f0: 1eea 883d bbba e6bb b5c6 c1bc 69e5 ed3d
00000300: 6420 8bbc cf5a 4a3d 67e5 463d 1c19 453d
00000310: 0520 89ba a493 bc3b 5e2d fcbb 4ce1 bb3d
00000320: 5751 7d3d 914f 3dbd bf3e 843d beac 803d
00000330: 294a 6f3a 33a4 cabc 5c04 813d bf8e 503d
00000340: 70b6 37bc cf36 483d b52e 86bd ca33 a7bd
00000350: 329d 243c 3b1d fd3b f193 9d3c 0baa 103d
00000360: c6e0 d23c 1056 333c 3799 f73c f410 4e3c
00000370: 2e0f a23d a0e8 b63d 91a2 753d 7820 893c
00000380: 9618 cc3d 5046 ae3d 89f9 333d 578f b7bb
00000390: fab4 fabb 9398 223c b2ba 693c 5aae 20bc
000003a0: 5073 953d 303f f1bc 573f 743d ce6d ac3c
000003b0: 8dd9 253d 5c41 9b3d 72a7 943d 1500 fbbb
000003c0: 035f 043d cad1 2e3c 5409 ab3d 0b55 373b
000003d0: fd53 e6bc e4c0 2cbd b59a c9bc 2bf2 9cbc
000003e0: 615a 8f3d 33bd a13d 3444 5b3d 51e6 fb3d
000003f0: 8273 1f3d 82d8 de3d 97ee 67bc 7191 223d
-0.030969024 0.01153163 -0.011630084 0.011225106 0.013518024 0.020981655 -0.0489085 0.048244663
0.06377251 0.038536675 0.062349547 0.040576946 -0.01622164 0.013680171 -0.007067717 0.02906205
0.026416657 0.05831212 0.08890763 0.077362195 -0.029976986 0.037713517 0.038060147 0.023218047
0.052251842 0.005067069 0.061047047 -0.027056491 0.055371583 0.012235595 0.06431094 -0.018838914
-0.031207457 0.014790838 -0.09294605 0.0871818 0.0028252366 0.044768505 -0.09906414 0.0570896
0.013969705 0.030417353 0.012264638 0.10705363 0.017962867 0.04804853 0.11060645 0.033421572
-0.02423755 0.10344014 0.04333527 0.10249734 0.020912139 0.06238207 0.085368514 -0.0025841794
0.052195106 0.054749615 0.071055345 0.06543315 -0.018834049 0.015015225 0.053277984 0.045429453
0.06049406 0.06782664 0.019412559 0.012180188 0.051242057 0.07183993 0.024085661 -0.052221235
0.06440804 0.0471813 0.078792274 -0.01507194 0.0055746306 0.06714779 0.027585853 -0.007987836
-0.045742214 0.030740282 0.08649504 -0.088689364 0.057222743 -0.06182964 -0.043321613 0.029855868
0.03797299 0.023580454 0.0027463422 0.04938754 0.048231833 0.001487181 -0.010399105 0.04524855
0.04751535 0.07805496 0.052368402 -0.0053372993 -0.029593145 0.072051644 0.06483689 -0.002404567
0.05168069 0.042284362 0.11185767 -0.01149316 0.058899444 0.02030824 -0.007861798 0.083634906
0.06617306 0.028936733 0.048444297 0.023042483 -0.038106095 -0.0059379446 0.014572662 0.06551917
0.086005755 0.055658013 0.015877066 0.060304504 0.11868597 0.06441762 0.03298342 0.005548
-0.0007175702 0.06607313 -0.015281108 0.041813612 0.13577145 0.057784464 -0.02907675 0.030832121
0.07826667 -0.08492288 -0.04027006 0.051387373 0.06260681 0.038567454 0.033003073 0.032750737
-0.017046971 -0.0030407226 0.028345743 -0.018060524 0.0046216473 0.023249898 0.0021551275 -0.022660555
-0.008552806 0.04100818 0.06258634 0.024434952 0.02729512 0.10154855 0.046908606 0.03345112
0.0882881 -0.08506142 0.07356126 0.067236096 -0.019291325 0.14046344 -0.023113603 0.123596214
0.031217096 0.011378128 0.09166677 0.04470935 0.03939027 0.028755987 -0.022923281 0.022151029
0.09858784 0.10091133 0.030907018 -0.039601754 0.08887629 0.0659189 0.06425348 0.026833631
0.02941464 0.008144363 -0.00019661718 0.036467347 0.06685279 -0.007041303 -0.023654321 0.11616022
-0.016983218 0.049403008 0.04855862 0.04811965 -0.0010461813 0.005754905 -0.007695838 0.09173831
0.06184515 -0.04621846 0.0645728 0.06282948 0.0009128177 -0.0247365 0.062996596 0.050917383
-0.01121293 0.048880395 -0.065518774 -0.08164175 0.010047244 0.007724432 0.019235583 0.035318416
0.025741946 0.010945812 0.030224426 0.012577284 0.079130515 0.089310884 0.05996949 0.016739115
0.09965627 0.08509505 0.043939147 -0.0056018042 -0.0076509686 0.009924072 0.014265703 -0.009807194
0.07297385 -0.029449075 0.059630718 0.021048453 0.040490676 0.07580826 0.072585 -0.007659922
0.032317173 0.010670135 0.083513886 0.0027974274 -0.02811622 -0.042176142 -0.024609903 -0.019158443
0.0699966 0.07897415 0.05353184 0.12299789 0.038928516 0.10881139 -0.014156005 0.039689485

weight f4 [32, 256]
00000000: 3949 d3bc c7c2 b6be fd15 b2be 1d3a f8bd
00000010: 9d0d f03d 41bf 853e 6ddb 31bf 14c7 873d
00000020: 178e a7be 89f0 333e 6268 293e c963 213e
00000030: b454 933d aa15 1dbf 6d3b 983c e838 7b3e
00000040: a0e3 1dbf 03d4 68be 0c1a 803e cdd4 083e
00000050: 1fd0 8d3e 8629 a7bc b264 633e 196e 6f3e
00000060: 3c5b 213e f031 b9be 11ad ff3d 798b 463e
00000070: 8dfd 823b 811d bf3e aff8 203e baad f23e
00000080: 6c84 42bf 9d1d a23d 72e3 18be 50cf f3be
00000090: 3f25 5f3e 4a23 4e3e 192f 5c3f bb1c 9cbe
000000a0: 5f0b b3be f9bc 913c 51be 98be 08a8 afbe
000000b0: 2b67 ad3e 3fce 1bbf cc3b 1c3e af66 94be
000000c0: 558c 9c3e fbc8 45bf 8342 143e 10c9 003e
000000d0: 62ea 523e e237 6d3e 4cfb e23d 6c9e 693e
000000e0: c29a cdbe 3534 8c3e 1246 233e 534a eb39
000000f0: 6aef 983e 7276 77be 4064 5b3e d547 303e
00000100: e7d4 613e 05b7 873e d2e2 3dbf e620 ba3e
00000110: 2faf 563e a321 783e 6a05 763e c1b0 343f
00000120: 14da 5e3e 65ea 4b3e 562d 683e 241b c03e
00000130: 6ef5 cf3d e212 4fbf 0a23 1d3e 862d f9be
00000140: 7512 493f c0ef 8f3e 14b5 253e 6ae5 07bf
00000150: e659 623e 5c69 fb3e a066 023f be8c 663e
00000160: 2078 dabe 47dc af3e 8043 9d3e 5497 d43d
00000170: d4bb 473e 522c 9f3e 83fe e93d 2b9f 273e
00000180: 8c96 663e b1f8 983e fa8d 40bf a1e0 b2be
00000190: 1673 bf3e a274 8cbf 4902 75be db7f a43e
000001a0: 7146 bf3e 973b 923d 6664 0d3e d104 a03e
000001b0: 1303 563e eae8 04bf b69a 213f 0d28 133e
000001c0: 2e31 ea3d bbfb 883e 1545 583e 8dab a43e
000001d0: 9230 be3e e763 4cbf 205b f2be f037 7e3e
000001e0: c288 16bf 8b8d 8cbe 5085 af3d 2f8b a23d
000001f0: 9510 db3d e97d 793e 7b1a a83d b234 11bf
00000200: 48d6 5bbe 3454 8a3e 3949 49bf d26f 353e
00000210: eb98 be3d fddd 75be d70b 013f 849b cabc
00000220: a449 593e 7105 a2be fd34 fabd 3f9a 223d
00000230: 6602 f63d 2625 31bf a7d0 663e b470 733e
00000240: 67fa 4e3e 0e04 86be 9691 3a3e da66 11bf
00000250: 6724 3dbf c8c2 1a3d 221e 63bf da06 b2be
00000260: cc33 babd ebe5 ec3d 73ee 503e 6abd 61bf
00000270: b1d8 53bf e9b1 10bf 3635 43bf 1ab9 793e
00000280: 87d4 36be 0b65 573e cee0 633e 1944 6e3d
00000290: 1bf7 873e cbd4 d93d dc71 88be 5e05 a43d
000002a0: 8c08 373c 1dc1 d43d 04e2 4abf cf2f d03d
000002b0: ea16 8b3e 6958 1bbf 5776 c9be 50d9 74bf
000002c0: 6791 fabe 37eb 07be 5075 b13c bb7a b63e
000002d0: 020f 153e 6698 a83d b1dc 13be e925 7ebd
000002e0: 2774 20bf 7b74 973e f18e 233e d735 593e
000002f0: 1fb0 1ebf f53b 0b3e d886 63be 57f6 8d3e
00000300: 8f8e 1dbd e3c6 1fbf efbf d23d 8a80 8e3e
00000310: 665b ff3d e47f a93e 162e 2cbe 6313 2d3e
00000320: abd9 0cbe 93b8 eabe ade8 0c3e 2106 5a3e
00000330: b9f1 dabe e964 e23e de25 aabe e55c 5c3c
00000340: bfbd 653e 2eda 3c3e 2740 2f3e af88 72bd
00000350: 685d cc3e 33d8 d13e 1593 ab3c 4f61 39be
00000360: cf4b 21bf 2bcf b03e c9b9 bebd 6887 6e3e
00000370: 318b 303e 9da1 153e 8d0a 293e b35f 26bf
00000380: a579 acbe a621 0fbf cb7b 213e 8e94 fd3e
00000390: 5072 0f3f 58bd 3bbd 135d fbbe 7b3b 8ebe
000003a0: 2409 03bf 4c62 dabe 2695 953e 0acd 26bf
000003b0: d746 ec3d 7057 503e 04fa 15bf 8522 ce3e
000003c0: c464 d2be 8d35 9d3e 6ad3 5d3e 6f45 b13e
000003d0: cc48 01be c9e6 23bf e7cb 073f 4be2 14bf
000003e0: a333 6fbf 502c 343e d384 14bd 4310 083e
000003f0: c91d e9bd 8bee 393e 16f4 6d3e 87d4 0a3e
-0.025791751 -0.35695478 -0.347824 -0.12120459 0.117213465 0.26122478 -0.6947544 0.06629768
-0.32725593 0.17572226 0.16543725 0.15760721 0.0719389 -0.6136118 0.018583024 0.24533427
-0.61675453 -0.22737126 0.25019872 0.13362427 0.27697846 -0.020405542 0.22206381 0.23381843
0.1575746 -0.36170912 0.12484182 0.19389142 0.0039975108 0.37327197 0.15719865 0.47398168
-0.7598331 0.079158045 -0.14930514 -0.47619104 0.21791552 0.20130649 0.86009365 -0.3049067
-0.34969613 0.017790304 -0.298327 -0.34307885 0.33867773 -0.6086158 0.15257186 -0.2898459
0.30575815 -0.77259797 0.14478497 0.125767 0.20597222 0.23165849 0.11083087 0.2281434
-0.40157133 0.2738358 0.15944698 0.0004487807 0.29870158 -0.24166277 0.21424961 0.17214902
0.22053872 0.2650682 -0.74174225 0.36353225 0.20965265 0.24231581 0.24025503 0.70582205
0.21762878 0.19913633 0.22673544 0.37520707 0.10154234 -0.8088819 0.15345398 -0.48667544
0.7854379 0.28112602 0.16182357 -0.53084433 0.22104606 0.4910382 0.50937843 0.22514626
-0.42669773 0.34347746 0.3071556 0.10380426 0.19505244 0.310885 0.114254974 0.16369312
0.22518367 0.29877236 -0.7521664 -0.34937003 0.3739249 -1.0973094 -0.23926653 0.32128796
0.3735843 0.07140272 0.1380783 0.31253675 0.2089961 -0.519179 0.63126695 0.14370747
0.114351615 0.26754555 0.21120103 0.32162133 0.3714643 -0.7983994 -0.47335148 0.24826026
-0.58802426 -0.2745174 0.08570349 0.079367034 0.10696522 0.24364437 0.08208176 -0.5672103
-0.2146846 0.27017367 -0.78627354 0.17718437 0.093065105 -0.24010463 0.5040869 -0.024732359
0.21219498 -0.31644776 -0.12217138 0.03969788 0.12012176 -0.6919731 0.22540532 0.23773462
0.20212708 -0.26174968 0.18219599 -0.56797564 -0.7388367 0.037783414 -0.88717854 -0.34770852
-0.09091911 0.11567291 0.20403461 -0.8817965 -0.8275252 -0.5652147 -0.7625307 0.24387017
-0.1785451 0.21034639 0.22253725 0.05817041 0.26555714 0.1063629 -0.26649368 0.08008836
0.011171471 0.10388396 -0.7925112 0.10165369 0.2716592 -0.6068178 -0.393481 -0.9564409
-0.48939058 -0.13273321 0.021662384 0.3564051 0.14556506 0.08232193 -0.14439656 -0.062047873
-0.62677234 0.29581055 0.15972497 0.21211945 -0.6198749 0.1359709 -0.22219408 0.27727005
-0.038466033 -0.6241285 0.10290515 0.27832443 0.12468605 0.33105385 -0.16814455 0.16901927
-0.13754909 -0.45843944 0.13760634 0.212914 -0.42762545 0.44217613 -0.33232015 0.013449882
0.22435664 0.18442604 0.17114316 -0.059212383 0.39915013 0.4098526 0.020944158 -0.18103527
-0.630063 0.34533057 -0.093127795 0.23293841 0.17240597 0.14612432 0.16507931 -0.64989775
-0.33686557 -0.5591072 0.1576988 0.495274 0.560338 -0.04583487 -0.49094447 -0.27779755
-0.5118582 -0.4265312 0.29215354 -0.65156615 0.11536949 0.20345855 -0.5858462 0.4026071
-0.41092503 0.30704919 0.2166268 0.34623286 -0.12625426 -0.64024025 0.53045505 -0.58157796
-0.93438166 0.17595029 -0.036259484 0.13287453 -0.11382634 0.18157403 0.23237643 0.13557635

bias f4 [32]
00000000: 29b6 e93d 6d1f 843d db9e ad3d 9f75 a8bb
00000010: c7a7 733e f57d 9cbf 2810 98bf c6f7 96bf
00000020: 6468 9ebf 3aa9 9abf ecb4 99bf 4b03 98bf
00000030: 6ab9 98bf 289f 98bf 5d6f 96bf 64d7 93bf
00000040: ebf7 a0bf 3d3b 92bf a810 99bf fa9b 92bf
00000050: ae7d 94bf 533f 9fbf f840 9fbf 3edb 96bf
00000060: f789 96bf 864c a0bf 602e 97bf d827 97bf
00000070: 48d2 98bf 26a5 9fbf b2bd 95bf fb93 9bbf
0.114116974 0.064513065 0.08477565 -0.0051409747 0.2379447 -1.2225939 -1.187993 -1.1794364
-1.2375607 -1.2082894 -1.2008338 -1.1876005 -1.1931584 -1.1923571 -1.1752735 -1.1550107
-1.2575659 -1.1424328 -1.1958208 -1.145385 -1.1600854 -1.24412 -1.2441702 -1.1785657
-1.1760854 -1.2523353 -1.1811028 -1.1809034 -1.1939173 -1.2472274 -1.1698515 -1.2154535
